ckpt/4-21/checkpoint.pth (torch, 83159 bytes, 6 tensors)

conv1.weight f4 [64, 3, 9, 9]
00000000: b7af 1f3c 6581 c43c 4718 163d d067 ac3d
00000010: 0af1 263d 1b6c 17bd 4bb5 eb3c b138 96bb
00000020: bdd0 7f3d 6cc9 68bd 0879 e5b8 0ab1 14bd
00000030: d239 683b 110b 053d 1771 0ebd c87d 4bbb
00000040: d23a 7cbd 01fc d2bc 0933 48bd 197d 33bd
00000050: f84d 86bd 5030 9b3d 231e 753d 5f63 283c
00000060: 2adf dcbc e68f 473d 5174 92bb fe26 ba3b
00000070: 6e60 2f3c 84fe 723d bfb2 d03c a299 533d
00000080: 9af8 913d 96ef e8bc acc6 94bb 6545 89ba
00000090: f506 8b3d 3a27 fcbc 7826 3e3d a67e f73c
000000a0: dcf1 883d 9868 cebb 72a5 6e3d 4667 613d
000000b0: 2ea3 06bd 8fa0 b7bd 9f55 febc 0c3a 4abd
000000c0: c67f bc3c deff a13d c0c2 26bc 3ed3 1abd
000000d0: e0d6 95bb 50ef 41bd 19ff 763b 6d26 29bd
000000e0: 077f 9cbc a1f8 093d 709d 9a3d d019 57bd
000000f0: 1785 a5ba 4f45 f8bc 9172 18bd 6ee8 ccbd
00000100: f7a5 42bd 7a5b bcbd c19f fa3c 2936 333c
00000110: a181 c93c a187 363d b64d 283c c9fb 0dbd
00000120: 150d 7d3b 4f8d bfbd e767 9bbd ca8c 443d
00000130: 4a74 19bd 1a3e 8a3d f240 023c 7af8 e43c
00000140: 4f7a 0b3d e5b0 84bc 543d a5bd a9da 02bd
00000150: 563d 053c ce2a 5bbc ee87 39ba 6229 86bd
00000160: f716 cf3a a4f4 85bc b51a 15bd cd09 0abd
00000170: c2ea 3cbc 97e0 34bd 031d 2f3d 73d2 ce3c
00000180: 85ec 3dbd e0c8 a83c 8ae8 4dbd 664d 793c
00000190: 3fb8 88bd 9cf6 683c 620f 96bc 58ef 2dbd
000001a0: 6552 d6bc 9dd8 81bd 976e 7ebd 617a ebbb
000001b0: 2dda 73bd 6a18 4bbd 3192 663d 8f1f edbc
000001c0: 636c 2e3d 6aa9 18bd dbd5 b63c 5f5b aabc
000001d0: a165 afbc 4dae 323c 4acd 3fbd 5707 6c3d
000001e0: 2198 48bc 6c59 453d e719 133d 9a73 3a3d
000001f0: ea76 44bd b657 353d 8dd7 88bd 5590 d8bc
00000200: 9947 15bd ec15 2fbd db12 55bc 5af2 47bd
00000210: 14f3 87bd cf51 573a 0ede 52bd dc2e 283b
00000220: f162 33bd ddf2 77bd 833e 58bc 0a78 853c
00000230: 46c4 0b3c b850 a13c 5d2c 06bd 09fd 913d
00000240: ce12 a5bd b857 003d 5921 34bd 3867 703d
00000250: 826a 733d 6b51 593d 72a6 7fbd fd14 663d
00000260: 1e44 3e3d 8ec7 b5bc 4de2 b73c 2001 58bd
00000270: 3dba 9fbb b86a 6f3d 6b6e 323d aa97 adbb
00000280: 7c55 98bc 6711 863d cdc2 663c c011 ba3b
00000290: 321f 893d 564b 9c3d 58f2 15bb b91a 00bd
000002a0: ede4 563d 8b51 593d 3240 89bd c4ce 223d
000002b0: 538e a9bc d7e6 31bd bf8f 1ebd 91dd 853d
000002c0: 9de7 cb3b a866 913c e5cb a8bd bee2 8a3c
000002d0: fed3 bd3c 8265 43bd 3534 3d3d 0481 a83c
000002e0: fca8 9b3d 237c 103c e8f5 e6bc 7dae 56bd
000002f0: beab 293d 429b 763d e995 133b bd99 373d
00000300: 3b58 5b3d 2a9c 293c e440 f9bc 7504 783d
00000310: 0320 453d 2960 c93b 60fb 2abd 884f 6fbc
00000320: 030f 573d daba 363a 5152 c03c 2e46 abbb
00000330: 2146 9e3d 827d 983d dd8f 533d ca87 e8bc
00000340: 8650 d3bd 0644 16bd 47d0 9fbc 0e50 333d
00000350: a95d 76bd d5a4 9abd 2fcf 92bd 9548 5ebd
00000360: a4b2 a3bd ea70 99bd 4ef0 24bd 5e32 62bc
00000370: 237b 1cbd f90c e6bc cf09 8dbd d9e3 95bc
00000380: 1320 073d ab90 e1ba 9235 a7bd dc9f 26bd
00000390: 79ed 68bc ed74 7bbc 4b97 093c 934a 5fbd
000003a0: 4370 c13c b77d 2d3d 818c aabd 7b5a b9bd
000003b0: 7090 b9bd 7e24 293d c575 f0bc 56c7 80bd
000003c0: bb0a 64bd 70cb 023b 8370 843d 0e0f acbc
000003d0: 88e5 16bd 921b 2bbd 27f2 633d 72ae 8fbc
000003e0: c785 8abc 45e6 3a3d 0db2 2dbb e998 3abd
000003f0: 3da5 303d ea85 5a3b b48d cc3c 12bd 28bd
0.0097464835 0.023987481 0.036644246 0.08418238 0.040757217 -0.03696833 0.02877297 -0.004584395
0.062454928 -0.056832716 -0.00010942115 -0.03630165 0.0035434854 0.032481257 -0.03477582 -0.0031050313
-0.061579533 -0.02575493 -0.048876796 -0.043820474 -0.0655784 0.07577574 0.059843194 0.010277598
-0.026961882 0.048721217 -0.0044694324 0.0056809178 0.010704143 0.059324756 0.025475858 0.051660188
0.07127495 -0.028434556 -0.004540285 -0.0010472952 0.06788436 -0.030780423 0.046423405 0.030211758
0.06686756 -0.0062990896 0.05826325 0.05503013 -0.032870464 -0.08966171 -0.031046687 -0.049371764
0.023010146 0.07910131 -0.010178268 -0.037799112 -0.0045727342 -0.047347367 0.003768867 -0.04129641
-0.01910354 0.033684377 0.0754956 -0.05251485 -0.0012628165 -0.030306486 -0.037218634 -0.1000527
-0.047521558 -0.09197135 0.030593755 0.010938206 0.024597945 0.04456294 0.010272434 -0.03466395
0.0038612534 -0.09353124 -0.07588177 0.04798583 -0.037464418 0.06750126 0.0079500545 0.027950514
0.03405219 -0.016197631 -0.08068338 -0.03194681 0.008132299 -0.013376905 -0.0007077445 -0.06550862
0.0015799691 -0.016352005 -0.036402423 -0.033700753 -0.01153058 -0.044159498 0.042752277 0.025246834
-0.04636814 0.020603597 -0.050270595 0.015216207 -0.06675767 0.0142189525 -0.018317882 -0.042464584
-0.026162336 -0.06340144 -0.062117185 -0.0071862196 -0.05953424 -0.04958383 0.056291763 -0.028945712
0.042583834 -0.03727094 0.022318771 -0.020795522 -0.021410765 0.010905814 -0.04682664 0.057624187
-0.012243302 0.048180982 0.035913374 0.045520402 -0.047964968 0.0442731 -0.06681738 -0.02643601
-0.036445234 -0.042745516 -0.013004984 -0.04881511 -0.0663816 0.00082137896 -0.0514813 0.0025662696
-0.04379553 -0.060534347 -0.013198498 0.01629259 0.008530682 0.01969181 -0.032757152 0.07128341
-0.08060227 0.031333655 -0.043977115 0.058692187 0.059427746 0.05305616 -0.062414594 0.05617236
0.04645168 -0.022189882 0.022446776 -0.052735448 -0.0048744963 0.058451384 0.043562334 -0.005297621
-0.01859545 0.06546288 0.01408453 0.0056783855 0.06695403 0.07631557 -0.0022880044 -0.031275485
0.052464414 0.05305628 -0.067016974 0.03974797 -0.020697748 -0.043433037 -0.038711306 0.06536401
0.006222679 0.017749146 -0.08242015 0.016953822 0.023172375 -0.047704227 0.046192367 0.020569332
0.076005906 0.008818659 -0.02819343 -0.0524125 0.04142355 0.06020666 0.0022519773 0.04482435
0.05355094 0.010352174 -0.03042645 0.060551126 0.048126232 0.0061454964 -0.041743636 -0.014606364
0.05250455 0.0006970592 0.023476752 -0.005226872 0.0772822 0.07445814 0.05165087 -0.028385062
-0.10318093 -0.036685966 -0.019508494 0.043777518 -0.060147915 -0.075509705 -0.071684234 -0.05426844
-0.07993057 -0.0749224 -0.040268235 -0.013805954 -0.03820337 -0.028082358 -0.068866365 -0.018297123
0.032989573 -0.0017209252 -0.081645146 -0.040679798 -0.014216774 -0.0153477015 0.008397887 -0.05451448
0.0236131 0.04235622 -0.0832758 -0.09050461 -0.090607524 0.041294567 -0.029353032 -0.0628802
-0.055674296 0.0019957684 0.064667724 -0.021003272 -0.03683999 -0.04177434 0.055650856 -0.017539237
-0.016909493 0.04562976 -0.0026503832 -0.045555983 0.043126334 0.003334398 0.024969913 -0.041195937

conv1.bias f4 [64]
00000000: 59c7 4ebc 5227 c6bb c0d4 34bd 18b3 30bd
00000010: fa60 9b3b f04f f33c a76a 403d a8a6 493d
00000020: 8302 99bd 37f0 6ebd 5f34 203d ee3e 5b3d
00000030: 566e 8b3b 2890 193d bf80 41bd db9e 0e3d
00000040: aad6 853d b0b9 2c3d 9488 393b b7cb 7f3d
00000050: 0445 95bd b2df 40bd b715 15bd f9ff b8bc
00000060: 35ca 41bc b201 173d 0519 06bd 651c ffbc
00000070: 2b78 12bd d971 523d ac4b 1e3b 5054 063d
00000080: b6b7 433c 2c38 1bbd dd40 d03c 1c3e 0dbb
00000090: 2c12 0dbd 911c 6fbc b61b 513d da06 35bc
000000a0: ad44 5fbc 360b 8b3c a655 4cbc ef6b ce3c
000000b0: e12a 57bd 078a 2d3d a3cf 8e3d d476 1a3d
000000c0: 0638 4e3d a9ec 79bb 9d39 943e 9a50 3e3d
000000d0: 9440 243d f101 5c3d c1f8 06bd dc23 0c3c
000000e0: c52d f3bc 27ab 15bd b09c 61bc c6f6 a3bc
000000f0: 0a36 a0bd 6c49 a93d 8440 383d acf8 47bd
-0.01262077 -0.006047168 -0.044148207 -0.043139547 0.004741785 0.029701203 0.04697671 0.0492312
-0.07471182 -0.058334555 0.039112445 0.05352681 0.0042550964 0.037490994 -0.047241922 0.034819465
0.065350845 0.042169273 0.0028310167 0.062450137 -0.07288554 -0.047088332 -0.036397662 -0.022582995
-0.011827995 0.03686685 -0.032738704 -0.03114147 -0.035759132 0.051378105 0.002415399 0.03279525
0.011945656 -0.037895367 0.025421554 -0.0021551913 -0.03444116 -0.014594213 0.051051818 -0.011048997
-0.013627213 0.01697312 -0.012471592 0.025197951 -0.052531127 0.04236796 0.06973197 0.03771098
0.050346397 -0.0038135445 0.28950205 0.046463586 0.04010065 0.05371279 -0.032952074 0.008553471
-0.02968491 -0.036540177 -0.013770267 -0.020015132 -0.07822807 0.08265957 0.044983402 -0.048821136

conv2.weight f4 [32, 64, 1, 1]
00000000: 5cc8 463e c5d2 d43d 79ea ccbd fe6e fc3c
00000010: 783f dcbd 7af1 edbc e4cd 043e 6714 21bd
00000020: 3fb2 9dbd 7129 b2bd b0a4 c2bd 581b 273d
00000030: eaae 9abd 3510 b1bd 7116 8abd 4f0f 8e3d
00000040: d829 f3bc 5c4c f83d 6863 b13d bc8d eebd
00000050: 70a0 2ebd b483 f1bd 9644 9bbd 551c 83bd
00000060: 2f6d 8c3d a759 003e 883b e3bd 7b59 82bd
00000070: 583f 013e 63be d53d d777 6abc c7ae 373e
00000080: 5a2b 863d 6fd0 37bd 8547 053c 2288 193e
00000090: a8f3 d23d 63f4 3a3e 676b 27be 0973 bbbb
000000a0: 2bbd 4c3d 28ce cebd 7b57 9abd 4aa5 9bbd
000000b0: 0c23 8b3d bb4c e33c d612 84bd 1d08 fcbd
000000c0: 9b57 9fbd e8ac 273d 8e0e 0abd cccb d43d
000000d0: 166a 65bd b407 b9bc defb a5bc bc10 81bd
000000e0: 6b9d db3d 54be ff3d 70be adbd 7ac8 103e
000000f0: 08be debd 9e26 8dbd 0c29 c3bd 0fe8 a2bd
00000100: e93f 2abd a153 ae3c 1263 ac3d 145d debd
00000110: 7f3f bf3d 10b3 373d c279 e7bd 9473 c03d
00000120: 9277 843d e743 bdbd 4d10 06bd fb9b a2bc
00000130: fa6b 1c3d fb64 073d 3d69 933d f95c 54ba
00000140: 6710 973d 5f27 88bd 21fe 873d f4cf f03c
00000150: 6280 ac3d 1be8 6a3d e56a f1bd 9037 ef3c
00000160: 4eec a7bd a7b6 683d 0a33 d1bd 9cfd 903d
00000170: 7617 883d 3898 03be 3311 523d 14ab a93b
00000180: 6f6e a0bd 412b 6c3d d4d8 333d b8aa 113d
00000190: ead1 a83a baa3 a73d 7238 c2bd f87b 88bd
000001a0: 52d7 853d e337 2abd 4411 9ebd 839a e33d
000001b0: 182b fe3d 5639 a9bd 5061 d2bc 28cf 87bc
000001c0: e47c 5f3d 00d0 6fbd f0b4 b9bd 72da d53b
000001d0: 3f34 a43c 84f0 09bd 6995 e0bd 8554 58bc
000001e0: 6e0c bdbd 2d0a 8e3d 18a8 c5bd 79ec 9f3d
000001f0: 9db4 58bc c136 5eb9 5606 b5bd 965c c9bd
00000200: 91e3 6abe 6b6b f0bd 09df dbbd a8b7 f63d
00000210: 634a 843a f151 babd c976 eebc 291d 3bbd
00000220: 8e81 283d e6c0 88bd 791c 623e 1de1 52bc
00000230: 0aea d33d e546 a1bd 1362 63bd c572 9b3b
00000240: 35bd 9d3d 1274 24be 933b b5bd 4ec8 8a3d
00000250: 7fb8 dabd 83c1 ca3d d88a 323c 82d5 d7bd
00000260: e34b 32bc 9cc1 b6bd b0df 513d aba3 f6bd
00000270: b71c 1ebd 9f2e 9d3c e7f8 833d 947e 22be
00000280: 0faa e9bd a2a0 1abd 01dc bc3d 8008 1bbe
00000290: 370b 943d 8416 e43d 9fac f03d 60c0 413d
000002a0: bc86 ef3b 9cd3 7ebd 1bd9 97bd a8b5 98ba
000002b0: b6b4 a13c e0a5 e5bd fd42 72bd 47a0 543d
000002c0: a9bf 53bc e6d2 183c 88d1 ab3d ffe3 17bd
000002d0: cf92 aabd 16c1 143d 89b0 f3bd 6619 613d
000002e0: faf9 8dbd 91b2 6a3d f192 093d 42ba 23be
000002f0: 695d 88ba 8f65 ea3d 8e03 15be 10df 853d
00000300: 86fb a2bb c78c a6bd 3884 56bd fda9 13bd
00000310: 4e82 4f3c 9ea0 563d 3583 993c 4d21 703d
00000320: 466c 323d a2b4 093d 44e8 a1bd fac2 603d
00000330: 70c4 fcbb 1ab2 09bd e3e8 803d f3d2 49bd
00000340: d921 55bd 2d00 98bc cc22 ee3d c285 18bd
00000350: d3bb 0ebe 3c6b afbd 6392 d03b 9175 653d
00000360: 1d74 ae3d 4d88 a7bd e24e 11bd 17c9 03be
00000370: b2c3 123d d944 483d 6aaf 163d 1290 a83d
00000380: 6c9f 9f3d 832e 0cbe 6f65 c13d 4a66 9fbd
00000390: bb1d d83d 517c 993c abd2 80bd 5016 753d
000003a0: 9ea4 80bc 3f3c cf3b 2643 a93d cdc8 213d
000003b0: de73 d5bd 0f9c 533d 9e95 e1bd 6310 4b3d
000003c0: 925d d83c dc74 1e3d 2362 eabc 742d bbbd
000003d0: 6383 bd3d f531 babd 6f6f bb3d 8e16 e7ba
000003e0: a3c1 eeb8 0782 0a3e d838 adbd 9de4 bebd
000003f0: 3929 9fbd 7295 9fbd d497 bc3c f1c0 ac3d
0.19412369 0.103917636 -0.100056596 0.030814644 -0.10754293 -0.029045809 0.12969166 -0.039326098
-0.07700013 -0.086993106 -0.09504068 0.04079756 -0.075528935 -0.08645669 -0.067425616 0.06936514
-0.029683039 0.121239394 0.08661538 -0.116481274 -0.042633474 -0.117926985 -0.07581441 -0.06401888
0.068567626 0.125342 -0.11095339 -0.06364723 0.1262182 0.10436704 -0.014310799 0.17937766
0.065512374 -0.044876512 0.008134727 0.14993337 0.1030038 0.18257289 -0.16349564 -0.0057205004
0.049985092 -0.10097915 -0.07536217 -0.07599886 0.06793794 0.027746549 -0.06448905 -0.12306235
-0.07780381 0.04093638 -0.033705287 0.10390434 -0.056009375 -0.022586681 -0.020261701 -0.0630202
0.107233845 0.12487474 -0.08483589 0.14138976 -0.10876089 -0.06892131 -0.095293134 -0.07954418
-0.041564856 0.021280112 0.08417334 -0.10857597 0.09338283 0.0448485 -0.1130252 0.09397045
0.06468119 -0.09241467 -0.03273039 -0.019849768 0.038188912 0.033055287 0.07197807 -0.0008101012
0.073761754 -0.066481344 0.06640268 0.029396035 0.084229246 0.05735026 -0.11787967 0.029201299
-0.081993684 0.056814816 -0.10214813 0.07079622 0.066451 -0.12851036 0.051285934 0.005177865
-0.078335635 0.057658438 0.043907955 0.0355632 0.0012879942 0.08185525 -0.09483422 -0.0666427
0.0653521 -0.041557204 -0.07718137 0.11113455 0.12410563 -0.08262889 -0.025681168 -0.016578272
0.054562464 -0.058547974 -0.09067714 0.006526285 0.020044444 -0.03367664 -0.10965998 -0.013203745
-0.092308864 0.069355346 -0.09651202 0.078087755 -0.013226655 -0.00021191967 -0.08839099 -0.098321125
-0.22938372 -0.11739238 -0.107359 0.120467484 0.001009297 -0.0909766 -0.029109376 -0.045682106
0.041139178 -0.066774175 0.22081174 -0.012871054 0.10347374 -0.0787485 -0.055513453 0.004743906
0.07702104 -0.16059902 -0.088492535 0.06776486 -0.10679721 0.09900191 0.010897361 -0.1053877
-0.010882351 -0.08923647 0.051238716 -0.12042936 -0.038601603 0.01918727 0.06443959 -0.15868598
-0.11409389 -0.037750848 0.0922165 -0.15139961 0.072287016 0.11137107 0.11751675 0.047302604
0.0073097628 -0.062213525 -0.074144565 -0.0011650817 0.01973949 -0.11213279 -0.059145916 0.051910665
-0.012924113 0.009327626 0.08389574 -0.03708267 -0.08328783 0.036316954 -0.11898906 0.054955862
-0.06932445 0.0572992 0.0335874 -0.1598902 -0.0010403815 0.11445152 -0.14552137 0.065366864
-0.0049738316 -0.0813232 -0.052372187 -0.036050785 0.012665344 0.05239927 0.018739322 0.058625508
0.04356029 0.03361953 -0.07905629 0.054873444 -0.007713847 -0.033617117 0.062944196 -0.049273442
-0.052034233 -0.018554771 0.11627731 -0.037236936 -0.13938837 -0.08565375 0.006365107 0.056020323
0.085182406 -0.08180294 -0.03547562 -0.12869678 0.03583116 0.048893783 0.03678838 0.08230604
0.07794079 -0.13689618 0.09443175 -0.07783182 0.10552546 0.018736036 -0.06290182 0.059835732
-0.015703496 0.0063243206 0.08264761 0.03949814 -0.104224905 0.0516625 -0.11014865 0.049576174
0.026411805 0.038685665 -0.028611248 -0.09139529 0.09253576 -0.0909156 0.09152114 -0.0017630623
-0.00011384792 0.13526164 -0.08458108 -0.09320948 -0.077715345 -0.07792176 0.023021616 0.08435238

conv2.bias f4 [32]
00000000: 4e12 fbbc dd3f e83c 8a8d ffbb f9fa a6bc
00000010: a4e6 ca3b 1f73 de3d 9c1c 7ebd 0743 103c
00000020: 8689 d8bd efcf 883c 06c1 d3bd ba97 3ebd
00000030: 5eb3 a73c 164b 94bd 1d02 5abc 6c44 bf3c
00000040: 3cf7 1fbd 81ea 3a3b 054b d0bd 0303 b83d
00000050: 35c0 b63d 9c70 11bd 7958 993d d78f 8d3b
00000060: 2dca f2bc 3347 51bd 8fb3 cd3d 84ae 233c
00000070: 1d36 b43d 8a3c f83c 8294 10bd 10b3 bfbc
-0.030648377 0.028350765 -0.007798855 -0.020383345 0.0061920453 0.10861801 -0.062039003 0.008805043
-0.105731055 0.016700713 -0.10339551 -0.046531416 0.020471271 -0.07240884 -0.013306168 0.023348056
-0.03905414 0.0028521123 -0.10170559 0.089849494 0.08923379 -0.035507783 0.07487578 0.0043201256
-0.02963742 -0.05109329 0.10044014 0.009990338 0.08799384 0.030302305 -0.035297878 -0.023400813

conv3.weight f4 [3, 32, 5, 5]
00000000: d875 bcbc aacd 483d a0ac a0bc 66ae 57bd
00000010: 1757 35bb 8e16 f13b cfc2 b6bb 6208 2f3c
00000020: e4d4 e7bb 7736 4ebc 7cd4 2e3d 5029 843d
00000030: 4a18 293d 5766 dcbb 178d 3a3c ed7b a23d
00000040: 5b24 f83d e6f6 ad3d feb4 b53c ce73 6e3b
00000050: 3d12 4f3b 4696 2c3d 0cc1 193c c6c5 debc
00000060: 7344 18bd 1751 a53c 9dd3 a43c 3d32 db3c
00000070: 9bd4 08bd 8c62 a43a ecc8 b93c 7c8b b3bb
00000080: 4e19 98bc b067 2bbc cd13 41bb 85ed ec3b
00000090: 10f0 ab3c 3b37 fe3c de77 34bc 0fb3 ad3c
000000a0: 74c5 36bc a5b1 b63b 7010 943b fe7e 973c
000000b0: bdcb efbc fada e73c a56e a637 6825 1f3d
000000c0: e90a 213d cddc 8c3c 5267 98bc 8da4 d0bc
000000d0: 0254 8dbc 0055 00bd 3774 edbc b730 edbc
000000e0: 0001 bebc d7fb 3a3b 3c5b 9fba 4fa3 58bd
000000f0: bb71 f6bc 3bed ccbc 3020 e2bc bb3c fabc
00000100: eae3 afbc ec39 c7bc f214 16bc a2ed 0d3d
00000110: f0a3 b8bc 8f12 0b3c 70e9 183c 01e0 a43c
00000120: 952f cebc d0fb 2f3c 7439 983b 538b b83b
00000130: 2f18 aa3c e2db fd39 3bd7 18ba 4e68 923c
00000140: 9e2e 43bd 517d d0bc cba1 913c 11d5 74bc
00000150: 39e7 8c3c f0f6 fcbc b59f f83c fcce 3f3b
00000160: cd83 293c bcb8 94bb db2b 9ebc 7143 b23c
00000170: cf59 1b3d 9996 b8bc 15c2 943b 807f a1bc
00000180: 7aa5 3bbd 7c1f 9d3a 8832 73bc 2546 be3c
00000190: 7da2 233d 25af 0f3e bf19 9e3d 4904 01bd
000001a0: 504a 49bd a62d 973d 63f1 183e 4bb8 d43d
000001b0: 5a07 733d 6e31 46bb d92c 613d b80f 853d
000001c0: b7ee 9c3d 07b2 363d e7e8 853d 1d76 babc
000001d0: 5807 493d ff02 733d 9a34 523b 302a 41bd
000001e0: 47d9 b83c 61de 213d c0b8 aa3c 6459 ccb8
000001f0: dbeb 45bc 44db acbd f067 fbbc fa8a b2bc
00000200: 70c2 29bd 3196 00bd 1477 203c 2713 a6bc
00000210: 5ddf de3c df03 f13b fba6 9e3a 402f 203c
00000220: 2aa9 193d 1105 8b3d 46f9 423d b4dc 2e3d
00000230: f9ba 66bd 177f 6abc aa89 953b f2c4 6abc
00000240: b75e 0fbd 7c7f d03b 635e febb 0fd1 c43b
00000250: 4065 8e3a 5d89 1dbb e085 fbbb 6146 59bd
00000260: 2484 e2bc 9012 3abc 0b1d 81bd 2151 2bbd
00000270: c98c f63c 1faa e93c ea39 d83c 2b9f 1fbd
00000280: 50a2 123c e5c7 243c 1c79 363c ebf6 12ba
00000290: 6956 6b3c 5c61 47ba 8dbe 3bbc d49e ea3c
000002a0: 6c09 d23c b781 00bd b3ca 79bb 7cd5 803a
000002b0: 6c30 1fbb ee43 abbc c5fd 1bbd 96f1 c43a
000002c0: ac9e a33c b859 37bb 146d 0dbd eeda dcbb
000002d0: a931 bcbc 8a96 c3bc cd07 a63b 3c30 48bd
000002e0: c8f5 4abd 5554 a3bc cd5b c7bc 82e1 73bc
000002f0: 2299 6ebb b0a0 2dbd c0b0 043d b143 c4bc
00000300: 7894 9fbc 0265 b1bc f463 1ebc a7c1 ff3b
00000310: 4dc8 e23c 9d35 b6bc c0c8 85bc 84e7 b63c
00000320: c827 a8bc 0e8f 313c 2284 4e3b 49c4 873c
00000330: 4c21 a6bc 1daa 76bc 8c76 a13b fa3b 2ebd
00000340: 3cb9 2dbd 4793 9e3c 008e 513b b4d2 fdbc
00000350: 5b0a 323c 6164 0dbd 176f 89bc 350f fa3c
00000360: 0c23 8e3c 1a8d 6abc ff22 f83b 5e32 8f3b
00000370: dd1f c03c b653 0e3d 01b1 a5bc a8dc 94bc
00000380: fa1d b53c 9738 27bd 12f1 a2bd 3a14 83bd
00000390: ffff b5bc 2d94 87bd 4c59 f63c 3d4b 68bb
000003a0: 3307 983c 07de 71bc c058 02bc 1faf 9b3c
000003b0: 318e 103b 299b 3bbd 0710 afbc 9b7e e1bb
000003c0: 0c88 71bc edf0 25bd 645e f4bc 4a9a 89bc
000003d0: 8916 0abd 5cb2 5dbc 4957 09bd 62e4 c4bc
000003e0: d35a cabc bbb7 7bbc 5317 573d b019 d13c
000003f0: d864 1a3c ec48 4ebd 4ec2 30bd 4efb 8f3c
-0.023005411 0.04902426 -0.019613564 -0.052656554 -0.0027670318 0.007357425 -0.005577422 0.010683151
-0.007074939 -0.012586228 0.04268311 0.06453192 0.04128293 -0.006726067 0.0113861775 0.07933793
0.12116309 0.08494358 0.02218103 0.0036384943 0.0031596564 0.0421355 0.009384405 -0.027193915
-0.037174653 0.020180268 0.020120436 0.026757354 -0.03340588 0.0012541576 0.022678815 -0.0054792743
-0.018566754 -0.010461733 -0.0029461265 0.007230463 0.020988494 0.031032195 -0.011014907 0.021203546
-0.011155475 0.005575376 0.004518561 0.018493172 -0.029271955 0.028302658 1.9840265e-05 0.038854033
0.039317045 0.01719513 -0.018603954 -0.025469089 -0.017251972 -0.031331062 -0.02898608 -0.028953893
-0.023193836 0.0028531456 -0.0012157927 -0.05289012 -0.030083528 -0.025015464 -0.027603239 -0.030546537
-0.021470983 -0.024319611 -0.009160267 0.034650452 -0.022539109 0.008488311 0.009333 0.020126345
-0.025169173 0.010741189 0.004645521 0.005631843 0.020763485 0.00048419746 -0.00058304117 0.017872002
-0.04765188 -0.02545038 0.017777344 -0.014943377 0.0172001 -0.030879468 0.030349592 0.002926766
0.010346365 -0.0045386236 -0.019308021 0.021760674 0.037927445 -0.022532748 0.004539738 -0.019714117
-0.045812108 0.0011987532 -0.014843591 0.023226807 0.039949883 0.14031656 0.077197544 -0.031498227
-0.049143136 0.073817536 0.14935832 0.103867136 0.059333183 -0.0030241865 0.05497441 0.06497139
0.07662719 0.044603374 0.06538563 -0.022761399 0.04907927 0.05932903 0.003207481 -0.047159374
0.022564543 0.039518718 0.020840049 -9.744128e-05 -0.012080158 -0.08440259 -0.03068921 -0.021794785
-0.041445196 -0.031393234 0.009794015 -0.020272804 0.027206117 0.007355198 0.0012104207 0.00977689
0.037514843 0.06788076 0.047601007 0.042690948 -0.056330655 -0.014312527 0.00456353 -0.014329182
-0.035002436 0.0063628536 -0.0077627166 0.006006367 0.0010863915 -0.0024038174 -0.0076758713 -0.053045634
-0.0276509 -0.011356965 -0.06304368 -0.041825417 0.030096428 0.028523503 0.026394803 -0.038970154
0.008949831 0.010057424 0.011137273 -0.00056062517 0.0143638635 -0.0007605755 -0.011459005 0.028640188
0.025639258 -0.031373706 -0.0038115203 0.0009829248 -0.0024290336 -0.020906415 -0.03808381 0.0015025612
0.019973122 -0.002797706 -0.034527853 -0.0067399656 -0.022972899 -0.023875494 0.005066848 -0.048874125
-0.0495508 -0.019937674 -0.024335766 -0.014885308 -0.0036407192 -0.04238957 0.032395124 -0.023958059
-0.019479975 -0.02165461 -0.009667385 0.0078050676 0.027683401 -0.022242362 -0.016331077 0.022327192
-0.020526782 0.01083733 0.0031511863 0.016573088 -0.020279549 -0.015055207 0.004927462 -0.042537667
-0.04241298 0.019357337 0.0031975508 -0.03098426 0.010866727 -0.034519557 -0.016776605 0.03052483
0.017350696 -0.014315868 0.0075725312 0.004370018 0.023452694 0.0347478 -0.020226004 -0.018171623
0.02210902 -0.040825453 -0.07956137 -0.06400342 -0.022216795 -0.06620059 0.030071877 -0.0035445236
0.01855812 -0.014762408 -0.00795573 0.019004403 0.002205741 -0.04580227 -0.021369947 -0.0068815476
-0.014741909 -0.040512968 -0.029830165 -0.016797204 -0.033712897 -0.013531294 -0.033530507 -0.024034683
-0.024701511 -0.015363629 0.052512478 0.025524944 0.009423457 -0.050362512 -0.043154053 0.017575886

conv3.bias f4 [3]
00000000: 2f20 073d 3d56 013d 461c 133d
0.032989677 0.031576384 0.035915636
