ckpt/demo1/checkpoint.pth (torch, 83159 bytes, 6 tensors)

conv1.weight f4 [64, 3, 9, 9]
-0.046389896 -0.009269794 -0.016705334 0.03669912 -0.048502505 0.00082916074 0.014933489 0.018038418
-0.030007562 -0.05082746 0.010850882 -0.061798662 0.008895689 0.048531532 -0.067223914 -0.012478866
0.028024118 0.038630005 -0.07254328 0.0104548875 -0.06329506 -0.02724059 -0.029820899 -0.08021306
-0.050161205 -0.00958524 -0.0718271 -0.057182327 0.030050108 0.031955987 0.0036816234 0.04832866
-0.04569997 -0.003057188 0.037002508 -0.0042844783 -0.03700359 -0.02702995 -0.044596314 0.058873672
0.021097805 0.051522233 -0.015543017 -0.019311612 -0.02224256 3.7596922e-06 0.051469028 -0.062615596
0.06469009 0.039288968 0.050146967 -0.03182008 0.05816269 0.0007066185 0.04218154 0.035555843
0.053624306 0.022085335 0.009029719 0.032709163 -0.05226731 -0.00024086639 -0.04318791 0.045146298
0.01013941 0.020746857 -0.032184146 0.061212115 0.01346032 0.017024685 -0.013024434 -0.05153251
-0.016973883 -0.009924989 -0.02988144 0.009344997 0.020136895 0.014489105 -0.015033866 0.007996736
0.044455774 -0.028654326 -0.051019855 -0.03632917 -0.03821675 -0.004199173 0.047225628 -0.08287496
-0.044843167 -0.044471357 0.00087445905 0.0129797645 -0.07835702 -0.033041406 -0.06060579 -0.019008871
-0.046355914 -0.07069249 -0.06216373 0.00026800024 0.007932334 0.007839925 0.018757237 0.03792132
-0.02236804 -0.07744242 -0.021626327 -0.07808611 -0.00087109936 0.011235251 -0.015222133 0.019977719
0.017795458 -0.05364649 -0.050966006 -0.06964631 0.020305568 -0.030751271 0.019170988 0.013688078
-0.04345085 0.020647451 0.0066215834 -0.07539752 -0.03498248 -0.05520336 -0.07148834 -0.02675159
-0.06350735 -0.0134257935 -0.035623774 -0.070518725 -0.016489219 0.011170615 -0.083852366 -0.043407083
-0.08332723 -0.08073169 -0.07015773 0.04023278 0.048837334 -0.05121855 -0.06839183 -0.035946615
0.027191738 -0.03230019 -0.027300157 0.009560113 0.008038863 -0.009873422 -0.055738393 -0.03640636
-0.04333956 -0.043384153 -0.07932784 0.023877364 0.032060653 -0.05457038 -0.03488874 0.040368956
-0.0723254 -0.012614643 0.01327646 -0.028829927 0.023222772 0.06060396 -0.007403847 -0.049079373
-0.015814576 0.025209328 0.020484123 -0.04274971 0.03257548 0.0036494767 -0.004949886 0.043567225
0.032309115 -0.027109083 0.022714056 -0.051020373 0.05035438 0.0062772525 -0.043612704 0.025683658
0.017698694 0.058676507 -0.07527414 0.01350604 -0.06697462 0.071915425 0.07141779 0.04714586
0.086770944 0.045906488 0.03993082 0.0020943403 0.037377562 0.0009487411 0.026159374 0.076853566
-0.021858132 0.022384206 0.050089736 0.02825326 0.055815518 0.051303945 0.07254591 -0.03629927
0.054841623 0.0021536688 0.047460344 0.03084916 0.030579194 -0.059178907 0.051066853 -0.04148517
-0.0151423495 0.04862025 0.037281252 0.052076917 -0.023553226 -0.027303025 -0.06217625 -0.04153506
0.031720296 0.041320655 0.033406153 0.0171903 0.07130194 -0.0018555359 0.013317826 0.019019555
0.02731536 -0.061380338 -0.028722862 0.036474004 0.06396947 0.053444736 -0.031720124 -0.028199557
-0.039588682 0.016261995 0.061408732 -0.030874634 0.024728132 0.010690988 0.042157274 0.0101739215
-0.05976824 -0.011180001 0.0015630277 0.06688208 0.017718203 0.061062366 0.04776424 -0.043743197
00000000: 5503 3ebd 56e0 17bc a0d9 88bc d151 163d
00000010: 90aa 46bd 095c 593a 98ab 743c 4ec5 933c
00000020: 6bd2 f5bc 7430 50bd e6c7 313c 9820 7dbd
00000030: 39bf 113c 00c9 463d b1ac 89bd 2874 4cbc
00000040: d692 e53c 7f3a 1e3d 9291 94bd fa4a 2b3c
00000050: d7a0 81bd a827 dfbc f54a f4bc bf46 a4bd
00000060: d675 4dbd 690b 1dbc 161a 93bd 0438 6abd
00000070: a52b f63c 48e4 023d 6447 713b 46f4 453d
00000080: e42f 3bbd 1a5b 48bb f18f 173d cf64 8cbb
00000090: 1491 17bd ea6d ddbc a0aa 36bd 8525 713d
000000a0: 4ed5 ac3c fa08 533d 23a8 7ebc 6333 9ebc
000000b0: 0736 b6bc 054f 7c36 30d1 523d 9b3c 80bd
000000c0: 3d7c 843d 78ed 203d e866 4d3d c655 02bd
000000d0: 003c 6e3d 5d3c 393a 8dc6 2c3d 01a3 113d
000000e0: 29a5 5b3d 4eec b43c 63f1 133c 0bfa 053d
000000f0: 3f16 56bd 1491 7cb9 cee5 30bd 53eb 383d
00000100: c51f 263c 50f5 a93c 86d3 03bd 8eb9 7a3d
00000110: ad88 5c3c 5a77 8b3c 7064 55bc c113 53bd
00000120: d00c 8bbc 6c9c 22bc ecc9 f4bc c21b 193c
00000130: 21f6 a43c b663 6d3c 9b50 76bc be04 033c
00000140: 4217 363d 7abc eabc 32fa 50bd e5cd 14bd
00000150: 2b89 1cbd 3799 89bb a96f 413d 59ba a9bd
00000160: 78ad 37bd 9927 36bd f43b 653a 14a9 543c
00000170: a579 a0bd 6d56 07bd c73d 78bd 7eb8 9bbc
00000180: b3df 3dbd 39c7 90bd 659f 7ebd 6282 8c39
00000190: 9ff6 013c 0773 003c c7a8 993c 6353 1b3d
000001a0: 2e3d b7bc 229a 9ebd b229 b1bc 9ceb 9fbd
000001b0: 7d5a 64ba 0f14 383c 4166 79bc 50a8 a33c
000001c0: c8c7 913c 6cbc 5bbd bbc1 50bd b9a2 8ebd
000001d0: dd57 a63c 17ea fbbc 7a0c 9d3c f643 603c
000001e0: 85f9 31bd d824 a93c def9 d83b 046a 9abd
000001f0: ca49 0fbd eb1c 62bd 7b68 92bd 2726 dbbc
00000200: 2410 82bd dcf7 5bbc 3cea 11bd 1f6c 90bd
00000210: 6614 87bc f504 373c caba abbd a0cb 31bd
00000220: 77a7 aabd a856 a5bd dbae 8fbd 21cb 243d
00000230: a809 483d 8bca 51bd 0411 8cbd c23c 13bd
00000240: 35c1 de3c 344d 04bd 94a4 dfbc 05a2 1c3c
00000250: 6fb5 033c 22c4 21bc f14d 64bd d61e 15bd
00000260: d384 31bd 95b3 31bd a276 a2bd 769a c33c
00000270: 0852 033d 3185 5fbd 7fe7 0ebd eb59 253d
00000280: 571f 94bd a6ad 4ebc 8285 593c bd2c ecbc
00000290: af3d be3c dc3b 783d f89b f2bb 7407 49bd
000002a0: 928d 81bc cb83 ce3c 52ce a73c 521a 2fbd
000002b0: de6d 053d 0f2c 6f3b a732 a2bb 8c73 323d
000002c0: 9056 043d de13 debc d412 ba3c bdfa 50bd
000002d0: 6540 4e3d 69b1 cd3b 3ca3 32bd 8966 d23c
000002e0: dafc 903c c756 703d 5429 9abd 7048 5d3c
000002f0: fd29 89bd 6548 933d 7e43 923d 041c 413d
00000300: f7b4 b13d 7108 3c3d 808e 233d 3341 093b
00000310: 3719 193d f0b4 783a 2f4c d63c 6765 9d3d
00000320: d30f b3bc 155f b73c e52a 4d3d 6173 e73c
00000330: d09e 643d 1624 523d f392 943d 8bae 14bd
00000340: 9ca1 603d 9124 0d3b c765 423d 61b7 fc3c
00000350: 3881 fa3c 9565 72bd 7a2b 513d 5bec 29bd
00000360: 9e17 78bc 0726 473d 3ab4 183d 9b4e 553d
00000370: b2f2 c0bc 98aa dfbc 86ac 7ebd ab20 2abd
00000380: 24ed 013d d93f 293d e4d4 083d acd2 8c3c
00000390: c006 923d 7435 f3ba 0333 5a3c e6ce 9b3c
000003a0: 76c4 df3c f369 7bbd 354c ebbc c465 153d
000003b0: 6d02 833d dee8 5a3d f6ec 01bd c202 e7bc
000003c0: be27 22bd e037 853c b987 7b3d cdec fcbc
000003d0: a792 ca3c 4129 2f3c 1bad 2c3d 85b0 263c
000003e0: 8bcf 74bd 532c 37bc 82de cc3a 79f9 883d
000003f0: c425 913c 881c 7a3d 70a4 433d 112c 33bd

conv1.bias f4 [64]
0.113662146 -0.0033298356 -0.036691055 -0.0012991485 -0.03403532 -0.010057769 -0.043904945 -0.064045645
0.00041278766 -0.050474234 0.031645995 0.0073560383 0.056192223 0.22550999 0.0032702675 -0.014525162
0.06575656 0.012826899 0.00472976 -0.01566097 -0.025042802 0.026288414 -0.045587063 -0.036123693
-0.05146815 0.015386894 0.00056358066 0.0069784615 0.084028006 -0.020100014 0.03495757 0.04940196
-0.061927617 -0.00636337 -0.006563353 -0.029078586 -0.004197858 -0.070069015 0.05379492 -0.04573255
0.047315665 -0.029810792 -0.0021878302 -0.050493777 0.19336423 -0.0005929316 0.06372311 -0.008761223
0.017607253 -0.0074294573 0.017868493 -0.07114762 0.10874414 -0.0030295725 -0.03482117 -0.019064903
0.039929353 -0.041614685 0.029800925 -0.0120890755 0.023252944 -0.02673298 -0.005772235 0.13187441
00000000: b3c7 e83d 5f39 5abb 5c49 16bd 3148 aaba
00000010: 9f68 0bbd 57c9 24bc acd5 33bd 5d2a 83bd
00000020: 6c6b d839 12be 4ebd 3b9f 013d ec0a f13b
00000030: d129 663d 17ec 663e fc51 563b f2fa 6dbc
00000040: 60ab 863d ea27 523c 1afc 9a3b 6f4b 80bc
00000050: 9026 cdbc cd5a d73c 80b9 3abd 70f6 13bd
00000060: 44d0 52bd 5019 7c3c 42bd 133a 94ab e43b
00000070: e016 ac3d c9a8 a4bc ab2f 0f3d b659 4a3d
00000080: d0a7 7dbd d183 d0bb 6511 d7bb 3736 eebc
00000090: 2f8e 89bb 5880 8fbd 1058 5c3d 0e52 3bbd
000000a0: 12ce 413d c335 f4bc b361 0fbb 90d2 4ebd
000000b0: 4601 463e f76e 1bba 4381 823d 3c8b 0fbc
000000c0: 163d 903c ce72 f3bb f260 923c d8b5 91bd
000000d0: 3fb5 de3d cb8b 46bb a5a0 0ebd 002e 9cbc
000000e0: f68c 233d 2974 2abd 1221 f43c 4211 46bc
000000f0: f57c be3c 1fff dabc 0425 bdbb 160a 073e

conv2.weight f4 [32, 64, 1, 1]
0.054261744 -0.038740568 0.10814835 -0.1411378 -0.032463133 0.23514049 -0.11772751 -0.07329533
0.030811729 -0.12418257 0.065405555 0.1163819 0.0681332 0.09663474 -0.1586251 -0.18005146
-0.16759461 -0.06806208 0.08975848 -0.14412256 -0.030827269 0.08882462 0.090160556 0.0025551135
0.07244455 0.12309751 0.09408745 0.04552588 0.065694004 -0.021118395 0.018244201 0.02832934
-0.09869604 -0.024225008 -0.10866829 0.09722222 -0.11549755 -0.13287644 0.07869234 -0.0013662797
0.117724776 -0.066991776 -0.11848711 0.091770336 -0.24042667 -0.11804889 -0.010062416 0.09600549
0.102303475 0.01561966 0.04860197 0.017769542 0.052867882 -0.029976118 0.044161383 -0.017592989
0.13090591 -0.068340875 0.048672196 0.03063331 -0.037517652 -0.08074219 0.07423917 -0.24962837
-0.02919902 -0.09511112 -0.028602153 -0.117389895 0.10877268 -0.07829876 0.1012405 -0.10855793
-0.009767935 -0.072015494 -0.07593909 0.03647989 -0.07501836 -0.119157225 0.049726274 0.0025284863
0.0017493406 -0.07699384 -0.03449312 0.07506336 0.093814045 0.0907749 -0.09459839 -0.070860475
0.027002707 -0.071398 -0.09814712 -0.018999696 -0.046147645 0.10167683 -0.07748272 0.100365266
-0.056556538 -0.098063074 0.012208924 -0.094430335 0.11549678 -0.015074 -0.0031575288 -0.066285126
0.006362404 -0.093135945 0.036060557 -0.07197096 -0.07404274 0.02000308 -0.04362299 -0.0036257573
-0.014093317 -0.005810754 0.017545689 -0.08974187 0.029269397 0.1081691 -0.06443955 -0.110556126
0.036907673 0.10836363 -0.07267101 -0.05473564 -0.07439809 -0.019683227 0.08541852 0.05302821
0.034445252 -0.12847452 0.068540394 0.0014488824 0.02348259 -0.026289951 -0.00028263935 -0.08336071
-0.11381016 -0.12185172 -0.14389089 -0.06441479 0.10989406 -0.02551446 0.055899657 -0.042779032
0.0028389548 0.050985534 0.10657334 0.018720265 0.062420007 0.02438103 -0.05968022 -0.12603854
0.030406566 -0.0686059 -0.06282057 0.0001289113 0.022739548 0.03202421 -0.13976121 0.05264565
-0.14664122 0.054928433 -0.045732275 0.03189502 0.044044413 0.10074331 -0.071117796 -0.025710728
-0.05958539 0.052962326 -0.022603385 0.0067919088 0.02500154 0.0077718906 0.07456555 0.004710615
-0.040210266 0.06878553 0.006533174 0.122264236 0.13553509 -0.09423839 0.16815491 -0.06556783
-0.010132023 -0.08215057 -0.0090439785 0.10420317 0.08853023 0.045772552 0.0036667793 0.06990331
-0.004007961 0.005697504 0.031815857 0.039177123 0.0730864 0.14619604 0.04928194 0.053571306
-0.015321843 0.07639014 0.05696743 0.14225687 -0.09622374 0.09787231 0.09083582 -0.10644485
-0.116451494 -0.0023083172 -0.035372302 -0.09114703 0.039702456 0.08923736 -0.035288714 0.015805744
-0.03906045 -0.026360687 0.0793591 0.058314938 0.075970195 0.064640835 0.16884506 -0.14112401
0.10532232 -0.010823506 0.08982341 0.10689027 0.078855194 -0.059797563 -0.046712272 0.047051545
0.07204689 0.11399324 -0.048781 0.071705036 -0.12826039 0.08122658 -0.042450007 -0.03881627
-0.0059216595 0.06494343 -0.11560681 0.06837547 -0.083511 -0.15043299 -0.017991435 -0.044351935
0.051224276 -0.004333531 -0.07098062 0.0075716428 -0.017157666 -0.07211136 -0.030840147 -0.015219434
00000000: 9041 5e3d 6eae 1ebd e27c dd3d 6d86 10be
00000010: 10f8 04bd abc8 703e 1f1b f1bd dd1b 96bd
00000020: e168 fc3c 6e53 febd 59f3 853d a259 ee3d
00000030: 6b89 8b3d 6fe8 c53d 9e6e 22be 695f 38be
00000040: ec9d 2bbe 2264 8bbd 4bd3 b73d dd94 13be
00000050: 7889 fcbc afe9 b53d 19a6 b83d b173 273b
00000060: cf5d 943d 8c1a fc3d ecb0 c03d 5879 3a3d
00000070: 948a 863d 7c00 adbc dd74 953c ef12 e83c
00000080: 2621 cabd 8673 c6bc 7b8d debd 711c c73d
00000090: fb89 ecbd c310 08be 7329 a13d bd14 b3ba
000000a0: b019 f13d fc32 89bd 5fa9 f2bd 16f2 bb3d
000000b0: 6932 76be 9ec3 f1bd d5dc 24bc 879e c43d
000000c0: 7c84 d13d 9ae9 7f3c dc12 473d 6e91 913c
000000d0: fe8b 583d 7a90 f5bc 91e2 343d 2c1f 90bc
000000e0: 330c 063e 4df6 8bbd 7f5c 473d b5f2 fa3c
000000f0: 1cac 19bd 295c a5bd b50a 983d 949e 7fbe
00000100: c832 efbc 9ec9 c2bd 104f eabc 1d6a f0bd
00000110: 36c4 de3d 1a5b a0bd 2e57 cf3d 9f53 debd
00000120: b009 20bc dc7c 93bd f485 9bbd f06b 153d
00000130: 3aa3 99bd b408 f4bd c7ad 4b3d f6b4 253b
00000140: 214a e53a f2ae 9dbd a848 0dbd d2ba 993d
00000150: 9421 c03d 31e8 b93d cdbc c1bd 4c1f 91bd
00000160: c834 dd3c 1d39 92bd 5b01 c9bd 40a5 9bbc
00000170: 5005 3dbd f13b d03d 43af 9ebd 4e8c cd3d
00000180: d4a7 67bd 4bd5 c8bd f007 483c b164 c1bd
00000190: 9389 ec3d f0f8 76bc 8bee 4ebb 7fc0 87bd
000001a0: b77b d03b 0fbe bebd 3cb4 133d 8365 93bd
000001b0: b8a3 97bd 80dd a33c 05ae 32bd 1d9e 6dbb
000001c0: a8e7 66bc 2368 bebb fabb 8f3c 96ca b7bd
000001d0: 60c6 ef3c c387 dd3d e2f8 83bd 406b e2bd
000001e0: 802c 173d c0ed dd3d 8ad4 94bd 7a32 60bd
000001f0: 075e 98bd b83e a1bc e8ef ae3d 1c34 593d
00000200: 7716 0d3d d38e 03be e85e 8c3d 6de8 bd3a
00000210: 905e c03c 065e d7bc 362f 94b9 05b9 aabd
00000220: 4d15 e9bd 658d f9bd 2258 13be e7eb 83bd
00000230: 2310 e13d b303 d1bc 0af7 643d 1139 2fbd
00000240: c20d 3a3b 35d6 503d 2043 da3d 3e5b 993c
00000250: 1fac 7f3d baba c73c 3f73 74bd 3f10 01be
00000260: 3117 f93c 4081 8cbd 12a8 80bd 5d2c 0739
00000270: 4a48 ba3c d12b 033d 901d 0fbe f7a2 573d
00000280: 1e29 16be a3fc 603d c451 3bbd 5aa4 023d
00000290: ea67 343d 8252 ce3d 35a6 91bd 4e9f d2bc
000002a0: cf0f 74bd 06ef 583d bc2a b9bc a98e de3b
000002b0: 08d0 cc3c 58ab fe3b d3b5 983d 815b 9a3b
000002c0: 85b3 24bd 6edf 8c3d 3c14 d63b ac65 fa3d
000002d0: b6c9 0a3e 0f00 c1bd cd30 2c3e 6d48 86bd
000002e0: c900 26bc 8f3e a8bd 322d 14bc 7968 d53d
000002f0: 564f b53d 007c 3b3d 594e 703b 7729 8f3d
00000300: 3755 83bb 21b2 ba3b 5851 023d 3178 203d
00000310: 53ae 953d 6ab4 153e dcdb 493d 966d 5b3d
00000320: 7808 7bbc 6f72 9c3d ae56 693d c9ab 113e
00000330: f410 c5bd 4771 c83d 2108 ba3d c2ff d9bd
00000340: 1f7e eebd 2347 17bb 8ce2 10bd 4bab babd
00000350: 0b9f 223d 14c2 b63d e68a 10bd 0c7b 813c
00000360: dafd 1fbd 5ef2 d7bc 0687 a23d a5db 6e3d
00000370: 4396 9b3d 6a62 843d b8e5 2c3e d082 10be
00000380: 3ab3 d73d 1355 31bc 56f5 b73d 49e9 da3d
00000390: d57e a13d 4aee 74bd 5e55 3fbd 1fb9 403d
000003a0: 528d 933d 4a75 e93d 96ce 47bd 17da 923d
000003b0: b156 03be 1f5a a63d 0fe0 2dbd cffd 1ebd
000003c0: 7b0a c2bb 1001 853d 43c3 ecbd 7008 8c3d
000003d0: d107 abbd 1b0b 1abe c662 93bc 60aa 35bd
000003e0: 8cd0 513d 4b00 8ebb 4a5e 91bd 8b1b f83b
000003f0: 3c8e 8cbc 1faf 93bd 7aa4 fcbc ef5a 79bc

conv2.bias f4 [32]
0.07501256 -0.13254951 0.09184144 -0.04186856 0.010684157 -0.045668487 -0.06841186 -0.02956398
-0.059438605 0.09706891 -0.14219323 -0.06529687 0.0030479413 -0.05730177 -0.040760055 -0.060130127
0.030298064 -0.07549788 -0.0030992224 0.096152805 0.061133623 0.12156492 -0.10580076 0.088418774
-0.0015708854 -0.12740529 -0.03194955 -0.059034888 0.03775986 -0.04506947 0.06061617 0.005801886
00000000: 2fa0 993d 0fbb 07be 5d17 bc3d 5e7e 2bbd
00000010: 9a0c 2f3c e10e 3bbd 841b 8cbd 2930 f2bc
00000020: e575 73bd 11cc c63d 1a9b 11be 5eba 85bd
00000030: f8bf 473b 43b5 6abd 04f4 26bd 024b 76bd
00000040: a533 f83c a29e 9abd 531c 4bbb c3eb c43d
00000050: 4067 7a3d 07f7 f83d 12ae d8bd e714 b53d
00000060: 2be6 cdba 8876 02be 88dd 02bd 91ce 71bd
00000070: 15aa 1a3d c49a 38bd a948 783d bf1d be3b

conv3.weight f4 [3, 32, 5, 5]
0.029992571 -0.013398489 0.0026160963 -0.052311976 -0.063571274 0.027989294 0.0056429934 0.036499467
-0.019151574 -0.064122505 0.0619402 0.05853356 0.050131265 0.016475508 0.010889088 0.03294157
0.022483665 0.016987866 -0.009330536 -0.039177295 0.0080792345 -0.022170892 -0.0092164595 -0.039815627
-0.057755318 0.028889272 0.0012851986 0.025557688 0.031642042 -0.0035218406 0.02416056 0.025860803
-0.00361659 0.0035584564 0.034070514 -0.005947534 0.030431962 -0.03235149 0.0016015498 -0.0052224565
0.0058187507 0.033532944 -0.00393866 0.0071425587 0.010293577 0.027218085 -0.010569941 -0.02797015
0.0059905723 -0.0018371381 0.0032993134 0.029806381 0.040322907 0.010685287 0.016652182 -0.0016291385
-0.02005408 0.011196037 -0.030581562 0.006231109 -0.003055183 0.007266148 0.05834201 0.03516565
0.00023886656 0.012412499 0.0055798218 1.3782409e-05 -0.0014965632 -0.0017571992 -0.013009581 -0.012843534
-0.023768459 -0.011289615 0.022381822 -0.015334694 0.008069158 0.043739468 0.025528459 -0.039322495
0.032013975 0.03503842 0.015986687 0.00091760344 0.020649243 0.032920543 0.024636663 0.011207545
0.018378038 0.033641737 -0.016559888 -0.00882788 0.011511665 -0.0381012 -0.039039664 -0.026514666
-0.013932243 -0.047309633 -0.051703744 -0.032375067 0.019890014 -0.026281374 -0.005009532 -0.0013170225
-0.0032751714 -0.012898722 -0.0090772165 0.057455026 0.032287262 0.019421453 0.029722676 0.023050928
0.04643485 0.0036876665 0.043505374 0.0062169526 0.0057778326 -0.006387368 0.033203863 -0.021616207
0.01772539 -0.026751038 -0.004087936 0.024715036 0.024679236 0.0038352236 0.04259854 -0.006772233
0.028409386 0.008038655 0.03762929 -0.013279467 0.041079335 -0.0078710755 -0.011932348 0.030583484
0.0068667876 0.010168091 0.0036876 0.04332129 0.0071514826 0.02283042 0.01216365 -0.018527234
0.015427165 0.020818429 -0.014065766 0.026096167 0.03207915 0.008541817 -0.010366337 0.024173299
0.04634345 0.02471504 -0.021060016 0.013253633 -0.007861534 0.003971184 0.03320359 0.022849007
-0.01913408 -0.00753528 0.05385316 -0.0014143162 0.008326442 -0.031833068 0.030771665 0.020049972
-0.028226512 0.030245552 -0.01723064 0.034569792 -0.002979715 0.004462156 -0.0007023845 -0.02379768
0.005833576 0.017058736 0.0012537102 -0.034760393 0.013930256 0.004865146 0.030990222 0.0004728323
-0.02945036 0.077401996 0.080086134 0.1093404 0.06853289 0.048854478 0.014739435 0.020588402
0.07237626 -0.026596775 -0.03502323 -0.022529129 0.006237703 0.056944396 0.032105155 -0.047028385
0.0043542534 -0.022637269 -0.02704657 0.0018421127 -0.03572909 -0.0017171468 -0.009542231 0.038998064
0.017405216 0.022976667 0.035799697 -0.022442112 0.026791312 0.032539118 -0.027915837 -0.0134128705
-0.021847669 -0.024330517 -0.041805122 0.021924356 0.0043760105 -0.04501871 0.008504055 0.006596578
-0.03790395 -0.012112687 -0.009275202 0.02825231 0.025217462 0.02483009 0.007465871 -0.0009178288
0.04039558 0.061237577 0.021916023 -0.014862788 0.042696465 0.059541225 0.0042196754 0.027356533
-0.0095755765 -0.015191127 0.0004004864 -0.0009366389 0.008515523 -0.040326383 -0.038933214 -0.016149553
0.011099533 0.02606132 -0.03449305 0.020147184 -0.03838646 0.013498674 -0.007595478 0.0014507174
00000000: fbb2 f53c 5685 5bbc d072 2b3b 1545 56bd
00000010: a831 82bd ce49 e53c dce8 b83b 7780 153d
00000020: c3e3 9cbc a952 83bd 02b5 7d3d e3c0 6f3d
00000030: 7156 4d3d a5f7 863c 2568 323c bded 063d
00000040: aa2f b83c 232a 8b3c 1bdf 18bc 5f78 20bd
00000050: c45e 043c bb9f b5bc a200 17bc b615 23bd
00000060: d790 6cbd 32a9 ec3c 1c74 a83a 5b5e d13c
00000070: 169b 013d aece 66bb 5eec c53c 09da d33c
00000080: 5004 6dbb fe34 693b 868d 0b3d 88e3 c2bb
00000090: 734c f93c ff82 04bd 18eb d13a 2421 abbb
000000a0: 38ab be3b d759 093d e00f 81bb 200c ea3b
000000b0: 64a6 283c 76f8 de3c 8c2d 2dbc a821 e5bc
000000c0: 904c c43b 20cc f0ba 4b39 583b 832c f43c
000000d0: a229 253d 5811 2f3c 286a 883c d188 d5ba
000000e0: 7448 a4bc 956f 373c 2f86 fabc 552e cc3b
000000f0: 7739 48bb de18 ee3b 08f8 6e3d db09 103d
00000100: 4178 7a39 cb5d 4b3c f0d6 b63b ff3a 6737
00000110: 5428 c4ba d251 e6ba 2326 55bc b06d 52bc
00000120: 12b6 c2bc 14f8 38bc 155a b73c 5e3e 7bbc
00000130: 8034 043c 2828 333d 0f21 d13c a010 21bd
00000140: 1621 033d 7284 0f3d 83f6 823c 538b 703a
00000150: 9a28 a93c b1d7 063d d4d2 c93c da9f 373c
00000160: 8a8d 963c ebcb 093d 9aa8 87bc d0a2 10bc
00000170: 6c9b 3c3c 0110 1cbd 0ee8 1fbd 4935 d9bc
00000180: 1044 64bc bfc7 41bd 4ec7 53bd b89b 04bd
00000190: 62f0 a23c 094c d7bc 0027 a4bb f19f acba
000001a0: 42a4 56bb 2955 53bc 9bb8 14bc f655 6b3d
000001b0: a63f 043d bd19 9f3c f87c f33c 4dd5 bc3c
000001c0: 7832 3e3d c7ac 713b b132 323d 94b7 cb3b
000001d0: f953 bd3b 204d d1bb c600 083d 7914 b1bc
000001e0: d634 913c fe24 dbbc 18f4 85bb 3077 ca3c
000001f0: 1c2c ca3c 6058 7b3b cf7b 2e3d 9ce9 ddbb
00000200: cdba e83c 90b4 033c 2c21 1a3d 1f92 59bc
00000210: ce42 283d aff5 00bc e57f 43bc 378a fa3c
00000220: ca02 e13b 1198 263c a9ab 713b aa71 313d
00000230: fc56 ea3b dc06 bb3c 0c4a 473c 6dc6 97bc
00000240: 38c2 7c3c 698b aa3c 1974 66bc a1c7 d53c
00000250: 6d65 033d faf2 0b3c 92d7 29bc 1507 c63c
00000260: a1d2 3d3d 3277 ca3c 0e86 acbc c425 593c
00000270: aacd 00bc b520 823b 7d00 083d d72d bb3c
00000280: 13bf 9cbc 83ea f6bb 2295 5c3d 9460 b9ba
00000290: a16b 083c 6463 02bd dc14 fc3c d73f a43c
000002a0: 493b e7bc 85c5 f73c 4527 8dbc 0e99 0d3d
000002b0: 5247 43bb 4737 923b 3a20 38ba 5af3 c2bc
000002c0: 9527 bf3b c3be 8b3c 8953 a43a ea60 0ebd
000002d0: ba3b 643c cd6b 9f3b 35df fd3c 7ae6 f739
000002e0: e241 f1bc f084 9e3d 3304 a43d dced df3d
000002f0: f95a 8c3d a21b 483d ac7d 713c 02a9 a83c
00000300: 013a 943d 7be1 d9bc 8574 0fbd 028f b8bc
00000310: a565 cc3b 873e 693d b280 033d d6a0 40bd
00000320: 20ae 8e3b cb71 b9bc c590 ddbc 0c73 f13a
00000330: ab58 12bd e311 e1ba 0557 1cbc 6fbc 1f3d
00000340: 6295 8e3c 9039 bc3c b4a2 123d 85d8 b7bc
00000350: 7479 db3c bd47 053d c1af e4bc a8c1 5bbc
00000360: e2f9 b2bc cb50 c7bc d93b 2bbd b59a b33c
00000370: a364 8f3b 8a65 38bd 9854 0b3c 1b28 d83b
00000380: 2c41 1bbd 4b74 46bc 04f7 17bc 6371 e73c
00000390: da94 ce3c 7968 cb3c 44a4 f43b 739a 70ba
000003a0: d675 253d 41d4 7a3d 3b89 b33c 0d83 73bc
000003b0: 7de2 2e3d 80e1 733d 3445 8a3b cf1a e03c
000003c0: e1e2 1cbc 34e4 78bc 60f8 d139 c688 75ba
000003d0: b184 0b3c 472d 25bd 6f78 1fbd 114c 84bc
000003e0: d1da 353c 8d7e d53c 9648 0dbd b50b a53c
000003f0: 1f3b 1dbd 8b29 5d3c 7de3 f8bb 0026 be3a

conv3.bias f4 [3]
0.01906412 0.030024888 0.03829923
00000000: 5b2c 9c3c c1f6 f53c a7df 1c3d
